mental_health_model.tflite (tflite, 53948 bytes, 8 tensors)

arith.constant f4 [3, 32]
00000000: 7385 68be 1c79 353d d0b1 fb3c e2de a4be
00000010: dbbc 893e 22c1 6dbe f249 aebc b5df b4bd
00000020: 71db cdbe 5b4e 013f b0d3 eabb a35c cb3e
00000030: 4ae2 b4be 2206 a43e f70b a63e 4131 8abe
00000040: 243d 17bf fa7d 5a3e 10fc 203e fed0 1c3e
00000050: 0103 d4be b125 bb3e 90d9 a13c d805 8f3e
00000060: ca12 c63d 24af 903e 9b65 8f3e cbbd 013f
00000070: 7358 c4bc 0fa1 ff3d 81ec ebbc e9c3 043d
00000080: 273a 293e da5e f13d b683 c0be cb0b cc3e
00000090: a3c9 babe 649c 00bd c11f c0be ba13 893e
000000a0: e848 45be 96ad d2bd 1e3c 053f 2ddb 4c3d
000000b0: c980 f5bd 5abd c23e 226d 94be b0e1 f1bd
000000c0: 95c9 3c3e a544 823e 092f da3e f1d9 af3e
000000d0: 91ee ea3e 92cf 12be 2713 c13e 63fc ed3e
000000e0: 3fb2 503e 90fb 083e e3c2 963e 069e 17be
000000f0: 5867 a6be 8d30 da3e 51e8 07bd 87f0 a0be
00000100: f45a 7ebe 90cd c93e e07b 2a3c cec4 a9be
00000110: 9259 143e d2ac 4e3d 09ab a13e a771 533e
00000120: 939b 8c3e 4898 0cbf 738d aabe 9ec8 97bb
00000130: d740 983e d32c 66be c912 3fbe 3319 f4be
00000140: a40a 4dbd 191b 503e d1fd 8ebe 9ee6 bcbe
00000150: 8680 153c 33fe 2ebd d20c 253e 1814 9dbd
00000160: 058f 94be 73e3 05bf 7170 8e3e 9a61 a03e
00000170: efd4 5ebe 299c 3ebe 6c38 02bf f716 eabd
-0.22707157 0.044304952 0.030724436 -0.32201296 0.26901898 -0.23218206 -0.021275494 -0.08831731
-0.40206483 0.50510186 -0.0071663484 0.39719114 -0.35328895 0.3203593 0.32431003 -0.26990703
-0.5907767 0.21337119 0.15721154 0.15314099 -0.41408542 0.36552194 0.019757062 0.27934146
0.096715525 0.28258622 0.28007206 0.50680226 -0.023967957 0.12481891 -0.028799297 0.032413397
0.1652609 0.117856696 -0.37600487 0.39852747 -0.36481962 -0.031399146 -0.37524226 0.26772863
-0.19266093 -0.10287015 0.52044857 0.05001371 -0.119874544 0.3803509 -0.28989512 -0.118106246
0.18436272 0.25442997 0.4261401 0.34345964 0.45885137 -0.14336994 0.37709925 0.46481618
0.20380495 0.13377213 0.29445562 -0.14806375 -0.3250072 0.42615166 -0.03318054 -0.31433508
-0.24839383 0.39414644 0.010405511 -0.33157963 0.14487293 0.050457783 0.31575802 0.20648824
0.27462444 -0.5491986 -0.33311042 -0.0046320697 0.2973697 -0.22478037 -0.1865951 -0.47675475
-0.050058976 0.20322837 -0.27928022 -0.36894697 0.009124881 -0.042722892 0.16118172 -0.07669848
-0.29015365 -0.52300185 0.2782016 0.31324464 -0.21760915 -0.18614258 -0.5086734 -0.114301614

arith.constant1 f4 [32, 64]
00000000: 5ac6 b93e 33d1 b63c 8c7b 033e 03e8 26be
00000010: ef93 003e 4363 cfbe 7bd4 743e e603 4ebd
00000020: 1479 2abd 34f8 febd 8e33 8fbe 8ba6 50be
00000030: a3b2 d1bc 6f12 d83d 5cf4 87be c330 6f3e
00000040: 4b5e b0bd 490f 893e 572e 153e 28ee d33d
00000050: c67a 2fbe d596 6a3e 0476 633c 373c b1be
00000060: 8bb0 dfbd b135 1d3e f9a1 8a3e 1e0d a9bd
00000070: 3b3c 723d 3e5f 013e 56c4 463e ee55 1d3e
00000080: 8d76 4bbd c38c 843d 31f4 ccbc a9a8 36bb
00000090: 6aa7 56bd 09d2 4e3e 3804 babd b1cf 98be
000000a0: 9dcb 89bb 959f 23be ecd0 693e 51f9 41be
000000b0: 152e 5bbc f6d1 9abe 9460 4c3d 1f5d 8d3d
000000c0: 3ca1 04bd 38d1 dabd aea3 34be 00d2 703d
000000d0: c759 f7bd 4a89 3f3e a25e cb3d abc8 6ebc
000000e0: 9dfe a8bb 3431 05bf 446f 573b 9904 9e3d
000000f0: 7144 a3be 91cc 01bf d9af d33d db8c 87bd
00000100: 6144 7a3d 6be8 abbd 704a 8bbe c053 65bd
00000110: 6b9f 353e df80 b0be 6fa8 eb3d 1386 e9bd
00000120: 8796 9ebe 1de1 023d 7091 b73d 160d 22be
00000130: a70c b93e d893 c1bd 85c8 063c 47ee 10be
00000140: 3ced ee3b ffe5 0ebe d96f 85bc 0b6b 333d
00000150: 4925 2fbd ce27 c83d 5ffe b5be 9f6e 7bbe
00000160: 395d a43e 5747 8a3e bc08 503d 0f3c 2dbe
00000170: ea95 a1be 12b5 b13e df64 103e c047 a5be
00000180: 706d ff3d 072e 85be 7cca c43e 70b5 e43d
00000190: e357 5d3e 472e f7bd 24a5 523e b43f a1bd
000001a0: aa64 25bd f883 c2be ab5e 033e 1261 3c3d
000001b0: 9e84 9c3c 368c ea3d 9dfe b03d d2d6 8e3e
000001c0: d0f1 bfbc 9fa2 9dbe c421 373e 95c1 2b3e
000001d0: 5d04 d13c 77cb 7fbe 7a39 88be 53ee 0c3d
000001e0: d5eb 9fbd fbd4 ba3d 6f09 593d bab4 a83e
000001f0: 933a 00be 7b98 4dbd e189 023e bc3a adbe
00000200: 4b80 8c3e e5dd 263e 75e4 633d fef7 453e
00000210: cbff b53d 565d 8b3e 38d8 b63d 5510 86bc
00000220: 0c8a b8be 8ee9 f2bc 97e3 71bd 227c 953e
00000230: 0ca6 0dbc 917a 253e 0e58 423e a7de df3d
00000240: 8bb8 8ebe e2f2 fbbd 0a69 8fbe 84c1 10be
00000250: 82bd a03d 092c 903d 7a4d 2e3e 3621 6ebe
00000260: 8b8d 1abe cc58 a1bd b605 ca3c 30ee 47be
00000270: 7018 58be 1c6f c73e d771 2f3c 2eb2 c23d
00000280: a82a a9be 072a 823e e952 59be fe22 bdbc
00000290: 8711 56be 7790 bebd 595f bebd d454 54be
000002a0: ac96 5bbe a234 58be dd3f 4a3e 667a 053e
000002b0: 71a7 c33d 1d87 84be e0c4 dbbc 7317 1fbe
000002c0: afc4 91bd cd55 90be 6f03 6c3e bdd9 6abe
000002d0: b6a9 34bd 5d5b b03e d04a 94be 4352 6b39
000002e0: f82b 24be 76e8 49bd 4ad9 653d 2fb9 993e
000002f0: f262 703e a347 a3bd 402a e4bb 435f 85be
00000300: 4d20 9bbe 4ce4 093e ad50 debc e4f9 2ebe
00000310: 1e91 4abe 4c54 02bf 7217 25be c4e6 a13d
00000320: 3553 f53b e5ff 4f3e 1c7d acbd 1241 c23d
00000330: 358e 65be a1cc 643e e42b adbd 2c1c 3c3e
00000340: 9234 17bc 83ec bbbd af6c 5f3e e848 813e
00000350: c4d2 95bd e563 803e f12b 84bd 17dd fe3c
00000360: c3a1 18bd 708e 7abe 80a3 2abe 4a29 6b3e
00000370: 6b56 b7bc 591a 203c 99d3 963e d63a 2bbe
00000380: 5ca1 0ebe 4d24 73be 28e4 0a3e 723f adbe
00000390: 784e d93d d247 72bd 8cc0 81bc 2f41 8ebc
000003a0: 6add 2dbc f264 313e 2b79 913e a0ff 793c
000003b0: 7ea0 0cbd e2ae 40bd 3436 593e b101 7ebe
000003c0: 1668 623d a949 03be 20bc 70be 5c03 9b3e
000003d0: 4215 46b9 a3ba 023e 0aa3 023e c7b3 663e
000003e0: faaa 99be 122f dc3b 923c 45be f680 9abd
000003f0: c499 a2bd 5e10 dcbe 97fc 40be 8231 28be
0.36284143 0.02231655 0.12840098 -0.16299443 0.12556432 -0.40505418 0.2390918 -0.050296687
-0.041619375 -0.12449685 -0.2796902 -0.20376031 -0.025597876 0.10550391 -0.2655362 0.23358445
-0.08611735 0.26769474 0.14568458 0.10348159 -0.17136678 0.229091 0.013883118 -0.34616253
-0.10922345 0.15352513 0.270767 -0.08254455 0.05913947 0.12633988 0.19410834 0.15364811
-0.049673606 0.06472161 -0.025018783 -0.0027871525 -0.052405752 0.2019731 -0.09082836 -0.29845956
-0.004205181 -0.15978844 0.22833604 -0.18942763 -0.013377686 -0.30238312 0.04989679 0.06902527
-0.032380328 -0.106844366 -0.17640564 0.05879402 -0.120776705 0.18704715 0.09930159 -0.01457421
-0.0051573054 -0.52028203 0.0032872716 0.07715721 -0.31888154 -0.5070277 0.10336275 -0.06618663
0.061100367 -0.083939396 -0.2720523 -0.055988073 0.17736594 -0.3447332 0.115067355 -0.11402526
-0.30974218 0.031952966 0.08963287 -0.15825304 0.36142465 -0.09452027 0.0082265185 -0.14153396
0.007291464 -0.13954924 -0.016288685 0.043803256 -0.042760167 0.09773217 -0.35545632 -0.24553917
0.32102373 0.27007553 0.05078958 -0.16917442 -0.31559688 0.34708458 0.1410098 -0.32281303
0.124720454 -0.2601168 0.38435733 0.11167419 0.21615557 -0.120693736 0.20570809 -0.078734785
-0.040379204 -0.3799131 0.12829082 0.04599101 0.019106206 0.11452524 0.08642314 0.2789827
-0.023430735 -0.30788133 0.17883974 0.16773064 0.025514776 -0.2497996 -0.2660635 0.03440697
-0.07808653 0.09122654 0.052987512 0.32950383 -0.12522344 -0.050194245 0.12747909 -0.33833873
0.2744163 0.16295584 0.055637795 0.19332883 0.08886679 0.27219647 0.08927959 -0.01636521
-0.3604282 -0.029652383 -0.059054937 0.29196268 -0.008645546 0.16160037 0.18978903 0.109311394
-0.2787517 -0.123021856 -0.28009826 -0.1413632 0.07848646 0.07039649 0.17021742 -0.23254856
-0.15093057 -0.07878265 0.024660926 -0.19524455 -0.21103072 0.38951957 0.010708294 0.09506641
-0.33040357 0.2542269 -0.21223034 -0.023087975 -0.20905124 -0.09304898 -0.0929553 -0.20735484
-0.21444196 -0.21113828 0.19750924 0.13034973 0.09553421 -0.25884333 -0.026827276 -0.15536289
-0.071175925 -0.2819046 0.23048185 -0.22934623 -0.04410716 0.34444705 -0.28963327 0.00022441991
-0.16032398 -0.049293958 0.056115426 0.30024096 0.23475245 -0.07972648 -0.0069630444 -0.2604924
-0.3029808 0.13465995 -0.027138079 -0.17087513 -0.1978192 -0.50909877 -0.16122225 0.07905343
0.0074867257 0.2031246 -0.084223 0.094850674 -0.22417529 0.22343685 -0.08455637 0.18370122
-0.009228842 -0.091759704 0.21818803 0.25250936 -0.07315591 0.25076213 -0.06453694 0.031111283
-0.037263643 -0.24468398 -0.16663933 0.2296497 -0.022380074 0.009771907 0.2945831 -0.16721663
-0.13928741 -0.23744316 0.13563597 -0.33837467 0.1061067 -0.059150524 -0.015838884 -0.017365066
-0.010611871 0.17323664 0.28412756 0.0152587 -0.034332745 -0.04704178 0.21212083 -0.24805333
0.055275045 -0.12821068 -0.23509264 0.30276 -0.0001889067 0.12766509 0.12757507 0.22529517
-0.30013257 0.0067194784 -0.19261387 -0.075441286 -0.07939485 -0.42981237 -0.18846355 -0.16425136

arith.constant2 f4 [64, 128]
00000000: dde2 293c fb3a bcbd 20d9 5d3e 328a 2e3e
00000010: 80c0 01bd ae37 0abe bdd9 903e b4e2 e93d
00000020: a033 1e3d c342 9cbd 6c98 12be 99e1 4abe
00000030: 8a93 34be b938 01be ead9 14be 6206 babc
00000040: 2541 873d 32f0 72bd 2bd2 6e3e e077 91be
00000050: ef81 363e 8730 62be 6556 8bbd 5b70 543e
00000060: ce7c fe3c 1e54 cf3d 72cc 463c ef35 8bbd
00000070: b66f 3e3b 662e f13a a830 183d 76e9 703d
00000080: d918 1c3e 033d 89be 8644 58bd c10b b73c
00000090: 8de1 f13d b024 b53c 1ef0 723e 66b7 8b3c
000000a0: baf8 963d d2c9 c03c 6fdb 1a3e cbcc f0bc
000000b0: f090 bbbd a901 04be f8b2 82bd fc4e 7fbc
000000c0: 04a9 14be 643c ef3d 6bbc 933d 21b7 5d3c
000000d0: 8f5d 443c d826 133e aa35 42be 775d 45be
000000e0: 8e7c 72be 6592 f43d f529 9f3d d6ae d63c
000000f0: a136 fbbd bcd4 f43d 0100 403d d9bb 123e
00000100: 6ac9 02be a5a9 e5bd 4a21 da3d f307 ed3d
00000110: e3aa 8fbd c9c5 95bc 1718 3b3d 2e42 543e
00000120: b7f0 253d 67f4 b9bd 20be cbbd 0376 7d3e
00000130: 8900 febd 2142 583e 2eed 92be 3e02 5c3d
00000140: 16e1 2dbe 8435 973d 5731 c83d 3df1 04be
00000150: c13e 793e 4595 ccbb e844 fdbb 9c76 5cbe
00000160: 0e84 64be 18ac 833c 1787 91bd bc60 4bbe
00000170: 59d5 a8bd 30f8 8abd d957 653d d432 c8bd
00000180: 02cc 11be 110e 00be a7a4 763d ae1b f1bd
00000190: 572e 06be f44a 4fbe 49f1 ffbd 313f 923d
000001a0: c780 443c 1ca7 43bd ef9e d2bd 17a6 9cbd
000001b0: 60bf 4c3d 3793 dbbc c9b6 303e 5ec9 c2bd
000001c0: 1943 9ebd c3b3 0abe b962 4cbe 6fd4 78be
000001d0: 1e68 17bd 2763 41be c659 623d 39b6 86bd
000001e0: 6716 403d b6f4 ffbc 7872 a73d ad98 833c
000001f0: ed9e ad3d 94da a53c f090 64be 8ab5 833d
00000200: bd22 92be ed6e c73d ed4f 8a3e b4ac e03b
00000210: 3b55 343d 2325 693e 69e2 63bd 870d 443d
00000220: 6f52 033e 9808 a23d e5af 25bd f8cd 5cbd
00000230: 385b adbe 1d2e 5c3b 4cd1 6ebe cd11 d3bd
00000240: 9f08 433e 6365 913d 0e4d 1f3e b60b 89bc
00000250: 09f3 2abe 7666 4bbe 968b 31bc 5565 19bc
00000260: 5eb1 0abe 2df9 3abd 7f0c 8e3c 1df1 133e
00000270: fee4 bc3c 1182 21be 5548 423d dd5f fd3d
00000280: a5b3 e8bc 6af8 573e b0de 093e 9f7d a63b
00000290: a331 5f3e 5d95 b63d 3aa1 cc39 3fc3 e0bd
000002a0: 87ba 07be b05e 3bbe 92b6 133e 9acc 75be
000002b0: 7bc1 9abd 4650 8c3b 8b98 23be 8bb5 52bd
000002c0: 9bc0 9a3d 862e 90bd e4b2 663d 5243 9cbe
000002d0: d1c2 463d 98cc 87bd 9948 a23d bac0 0cbe
000002e0: c1e4 153e bd82 0ebe 3965 313e e868 563e
000002f0: c2bb 31be b239 81bb cad6 90bd 2e4d 87bd
00000300: af60 5ebd 875e 963d 4eda 1f3e 4047 e9bc
00000310: 82d6 0abd c70c e03d a9f9 023e 8c0f 1a3c
00000320: 2983 f83d c623 6e3c 6452 04bd 4214 483b
00000330: 2f57 cd3d 61a8 ecbd e381 c0bd d2a0 08be
00000340: 3781 053e 2afe 2ebe e559 a13d 0933 563d
00000350: e9a1 bc3d 4734 68be c556 0c3e 533c 00bc
00000360: 26fe 3ebd a840 93bd 989d 94bc f4c3 5ebd
00000370: 815e 7c3d 25a7 14be 6ca9 143d ef3d 7fbe
00000380: 5b31 6bbe 5da6 1a3d af6d c0bd 31ca 323d
00000390: 19c6 253e fe3c 44be 5926 833e 400a 36be
000003a0: f9f1 1abd 3269 24be ccf7 08bd 7de7 43be
000003b0: 9a64 04bc a951 033e 440c e73c 3ecd 023e
000003c0: 6987 88bc dc71 b93d 9a19 f4bd 9fdc 063c
000003d0: b744 483c d4f9 eebd 69e3 0a3c 09f5 cf3d
000003e0: 1601 f83c 55f2 b73d d8e8 11bd 7b4a 3b3e
000003f0: f727 bbbd 6d9f f7bd 70f2 8cbe da68 cdbd
0.01036903 -0.09190937 0.21664858 0.17044905 -0.031677723 -0.13497803 0.2829112 0.11420193
0.038623452 -0.07629921 -0.14315957 -0.19812621 -0.17634407 -0.12619294 -0.14536253 -0.022708122
0.06604222 -0.0593111 0.2332236 -0.2841177 0.17823003 -0.22088824 -0.06803588 0.20745985
0.03106537 0.10123466 0.0121337045 -0.067973964 0.0029058284 0.0018400669 0.037155777 0.058816396
0.15243854 -0.2680436 -0.052799724 0.022344472 0.118105985 0.02211222 0.2372441 0.017055225
0.073716596 0.023533735 0.1512277 -0.029394528 -0.09158504 -0.12891258 -0.06381792 -0.015582796
-0.145176 0.116814405 0.07213672 0.013532431 0.011985197 0.14370286 -0.18965784 -0.19273935
-0.23680326 0.11941985 0.077716745 0.026206415 -0.12266279 0.11954638 0.046875004 0.1432947
-0.12772146 -0.11213998 0.10650881 0.11573782 -0.07015016 -0.018282788 0.04567727 0.2072837
0.040512767 -0.09079819 -0.09948373 0.24752049 -0.12402446 0.21118976 -0.2869658 0.053713076
-0.16980395 0.07383254 0.09775036 -0.1298265 0.24340345 -0.0062433803 -0.0077291615 -0.21529621
-0.22316 0.016073272 -0.071058445 -0.1986112 -0.08243818 -0.06785619 0.05599198 -0.0977532
-0.14237979 -0.12505366 0.06021562 -0.117728576 -0.13103615 -0.20243436 -0.12497193 0.07140959
0.011993594 -0.04776679 -0.102842204 -0.076488666 0.049987197 -0.026803596 0.17257227 -0.09511064
-0.077276416 -0.13545136 -0.19959535 -0.24299787 -0.03696453 -0.1888548 0.055261396 -0.06577725
0.046896365 -0.031244617 0.0817613 0.016064012 0.08477578 0.020245828 -0.22320914 0.0643111
-0.28542128 0.09737954 0.27014104 0.0068565253 0.044026595 0.22768073 -0.055635843 0.047864463
0.12824415 0.079117954 -0.04045095 -0.053907365 -0.33858657 0.0033596822 -0.23322028 -0.103061296
0.19046257 0.07099416 0.15556738 -0.016729217 -0.16694273 -0.19863304 -0.010836503 -0.009362538
-0.13544223 -0.04564779 0.017339943 0.14447446 0.02305841 -0.15772273 0.047432262 0.123718
-0.028405974 0.21090856 0.13463855 0.005080893 0.21796279 0.089152075 0.00039030035 -0.1097474
-0.13254748 -0.18297839 0.14425114 -0.2400383 -0.07556435 0.0042820303 -0.1597616 -0.051442664
0.07556268 -0.07040124 0.056322947 -0.3052011 0.048525635 -0.0663082 0.07924003 -0.13745394
0.14638044 -0.1391706 0.1732377 0.20938456 -0.1735678 -0.0039436454 -0.07072218 -0.06606518
-0.054291423 0.073422484 0.1561062 -0.028476357 -0.033895977 0.10939937 0.1279055 0.009403121
0.12134392 0.014534896 -0.032305136 0.0030529653 0.100263946 -0.11555553 -0.09399774 -0.13342598
0.13037573 -0.17089143 0.07878474 0.052294765 0.092105694 -0.22676192 0.13704975 -0.007826882
-0.046629094 -0.071900666 -0.018141553 -0.054386094 0.061613563 -0.14516886 0.036294386 -0.2492597
-0.22968046 0.037756313 -0.093959205 0.043649856 0.1618885 -0.19163892 0.25615194 -0.17777348
-0.03782842 -0.16055754 -0.033439443 -0.19131275 -0.008080626 0.1282412 0.02820409 0.12773606
-0.016666131 0.0905492 -0.119189456 0.008231311 0.012223414 -0.11668745 0.00847707 0.101541586
0.030273955 0.08981768 -0.035622448 0.18290131 -0.09138482 -0.12090955 -0.27528715 -0.100297645

arith.constant3 f4 [3]
00000000: c86a d33c 0825 be3c 8285 19bd
0.025807753 0.023211017 -0.03748084

arith.constant4 f4 [32]
00000000: 1409 9a3d ce77 32bd 0000 0000 ac29 173d
00000010: 0000 0000 b308 b4bc f6e0 f2bc 13b6 43bb
00000020: 96f3 17bd 57c0 933d 92f6 453d 2e9d bcba
00000030: 04a3 12bd c4bc 193d 99ed 8dbc df1c 1c3d
00000040: 3c49 053d 3bcb 12ba 36e9 173d 0000 0000
00000050: 1869 343d 07ae 19bc 0000 0000 1659 653d
00000060: ff1d f43b 977e a93d 0000 0000 664c febc
00000070: 5d86 daba 55d7 9a3d fb1c b53d fc45 88bc
0.07521263 -0.043571286 0.0 0.036904976 0.0 -0.021976804 -0.029648285 -0.0029863163
-0.037097536 0.0721442 0.04833085 -0.0014390105 -0.035799995 0.037533537 -0.01732521 0.03811347
0.032540545 -0.00055997417 0.03708764 0.0 0.044045538 -0.00937987 0.0 0.055993162
0.007449865 0.08276098 0.0 -0.031042289 -0.0016672123 0.075606026 0.08843418 -0.016634934

arith.constant5 f4 [64]
00000000: ee1c 2fbc fc35 9d3c ecd0 223d 0000 0000
00000010: 1fed e1bc 4470 5b3d 57d2 3ebd 1213 f03c
00000020: a1eb e13c 7878 113d 17ed 61bd dec2 013d
00000030: 548b 27bc 440d 953d 9ebb 0cbb 0000 0000
00000040: 4fe6 5b3d 6465 46bd 5e39 603d bfed 5c3d
00000050: 86d9 f53b e6e6 b5bb 21df 513d 0000 0000
00000060: d977 50bd 0000 0000 64b0 a13d 7d5f a93c
00000070: 3d79 aa3d d7ee 51bc 0000 0000 9c84 1bbc
00000080: 0128 48bd 0000 0000 b133 4cbd 8d7c c4bb
00000090: a654 2cbd ed66 71bd a62d 58bd 3d96 c6bc
000000a0: e0cb 53bc 758c 833d 66fb f93c dc02 86bd
000000b0: c957 133d 44e8 bb3d 0000 0000 7059 f8bc
000000c0: 45cd 2fbd 0000 0000 eefb ebbc c3db 0e3d
000000d0: 8a74 c3bb 6144 163d 134e 8d3d 0000 0000
000000e0: 02f1 68b9 5f3d efbb d4b9 49bc 584d 773d
000000f0: fbfb 0f3d 2842 2c3d 78c9 02bc ec64 11ba
-0.01068805 0.01919078 0.039750025 0.0 -0.027578888 0.05357386 -0.046587314 0.029305968
0.027578177 0.03551528 -0.055157747 0.03167998 -0.0102260895 0.07277921 -0.0021474133 0.0
0.053686436 -0.048436537 0.05474221 0.05393767 0.0075027375 -0.005551207 0.051238183 0.0
-0.050895546 0.0 0.07894972 0.020675415 0.083239056 -0.0128132915 0.0 -0.009492066
-0.048866276 0.0 -0.049853984 -0.005996293 -0.042072915 -0.05893605 -0.05277791 -0.024241561
-0.012927026 0.064232744 0.030515384 -0.06543514 0.03597239 0.091751605 0.0 -0.030316085
-0.04292037 0.0 -0.028806653 0.03487755 -0.0059648203 0.036686305 0.06899657 0.0
-0.00022215027 -0.007301017 -0.012312371 0.060376495 0.035152417 0.04205528 -0.007982604 -0.00055463496

sequential_4_1/dense_16_1/Add/ReadVariableOp f4 [128]
00000000: 0e31 37bd 6433 ec3d f696 0f3d f4fa b43c
00000010: 46dc 243d 0000 0000 f7b4 2b3c 0000 0000
00000020: 40b0 d23d c181 4e3d 6784 fa3d 8b02 163e
00000030: a473 243d 30ae 703d d617 543c b979 f23c
00000040: 0000 0000 63a1 84bd ceab e23d 8a5f 0cbd
00000050: 9e3d 673d 30d3 1e3d bbd6 333d a7d4 ff3c
00000060: e1e4 863d 4974 97bd 02b9 32bd 19d6 c93c
00000070: 57fc 563c 48e7 bd3d 0000 0000 0000 0000
00000080: 0912 58bd 9de9 e23c 4d20 f33c ce3c bbbd
00000090: 0000 0000 3389 413d f512 07bd 0000 0000
000000a0: 3424 43bc e1bb bcbb 9a82 373d a331 8e3d
000000b0: 6d14 1e3d 6714 9c3c bb10 cfbc 0000 0000
000000c0: 58cd 8d3c 9692 953c 6e85 823d fb34 18bd
000000d0: c08e 873c 51f0 33bc b54d 8cbd 0000 0000
000000e0: 065c 2ebc a397 f8bc 0000 0000 acc0 a73d
000000f0: 0000 0000 1643 663d c9e9 a8bc 7d1b b23c
00000100: c6ef 77bd dd3a d63b 04d2 19bd 0000 0000
00000110: fe64 953d 0955 9f3c ff1c 553d d9da 523d
00000120: 47a6 1e3d 394f 6cbd 903f af3d 4d52 0d3e
00000130: 0d82 a53d 8a36 a23d fe4a ce3c 0000 0000
00000140: 915f 3a3c 6f80 993d 3b80 a43d 0000 0000
00000150: 34de 0b3d 6e2d 82bd 619b 9bbc 79da a03d
00000160: 0000 0000 0000 0000 1729 553d 9c80 303d
00000170: 4ceb 033c 0000 0000 45cb 3d3d 59c3 edbc
00000180: df25 e13d 0000 0000 0000 0000 46b5 47bd
00000190: 0000 0000 0f19 823d 0000 0000 0000 0000
000001a0: 5dda 68bd 6423 113c f267 f03c 9281 62bd
000001b0: c113 b13d b345 80bd 7a6f 12bd d17e 5cbd
000001c0: a9a8 34bd f28b ac3d 0000 0000 5241 24bd
000001d0: 0000 0000 04e6 5ebd eeab 23bd 0000 0000
000001e0: 0000 0000 c31a 493d 0000 0000 1403 403d
000001f0: 9880 173d de7f 93ba 9a35 85bd 4b36 743d
-0.044724517 0.115332395 0.035056077 0.02209232 0.04024913 0.0 0.010480157 0.0
0.10287523 0.05041671 0.12232285 0.14649408 0.040149346 0.05875987 0.012945136 0.029599058
0.0 -0.064760946 0.110679254 -0.0342708 0.056455247 0.038775623 0.043905955 0.03122933
0.06586624 -0.073952265 -0.04363347 0.024638223 0.013121686 0.09272629 0.0 0.0
-0.052751575 0.027699286 0.029678488 -0.09142457 0.0 0.047249984 -0.032977063 0.0
-0.011910487 -0.0057597016 0.044802286 0.06943061 0.0385937 0.019052697 -0.025276532 0.0
0.01730983 0.018258374 0.06373106 -0.0371599 0.01654756 -0.010982589 -0.06850759 0.0
-0.010642057 -0.030345744 0.0 0.08191046 0.0 0.056216322 -0.02061929 0.021741623
-0.0605314 0.006537779 -0.037553802 0.0 0.07294653 0.019449728 0.052029606 0.05147824
0.038732793 -0.05769274 0.085570455 0.13800927 0.08081446 0.07920559 0.025182243 0.0
0.011375324 0.074952 0.080322705 0.0 0.034147456 -0.06356321 -0.018994989 0.0785417
0.0 0.0 0.05204114 0.0430914 0.008051705 0.0 0.04633643 -0.029023813
0.109935515 0.0 0.0 -0.04875686 0.0 0.06352436 0.0 0.0
-0.056848872 0.008858535 0.02934644 -0.05529935 0.08646346 -0.06263294 -0.035750844 -0.05383188
-0.04410616 0.0842513 0.0 -0.040101357 0.0 -0.05441858 -0.039958887 0.0
0.0 0.049097788 0.0 0.046877936 0.03698787 -0.0011253317 -0.06504364 0.05962209

sequential_4_1/dense_16_1/MatMul f4 [128, 18]
00000000: d500 1fbf d79d 0f3e caa1 efbd 9f7e 17bc
00000010: 6da6 a03e 2a3b 5f3e 847d 043f 39e4 64bd
00000020: bb3b cd3c cbc2 17bf 1d8c 19bd d702 a2be
00000030: 34e4 353c 5aa6 2dbe 58e0 c83d b7f2 91be
00000040: 9af3 aa3e 1751 1abe c797 b5bc 0261 a13d
00000050: 9fd2 ff3d d4be f63d 7e58 13bf 657a 383e
00000060: a378 043f 7d4e d9be b2ec 933e d40b 1dbf
00000070: ef2e 823e 9a3f 093e e3e3 ca3e 1327 70be
00000080: b32a b23e 0e71 873c 61be 91bd 2c82 69bd
00000090: 36f9 153d e9fc a03e 1322 d93d c751 823e
000000a0: 3f44 88bd ce74 8b3d e570 073f 9974 e63d
000000b0: 2828 cf3e b30c 143f 0c71 13bd fb5f bf3d
000000c0: 3047 1d3d c3ff 963e 4c58 f6bd 025a d13e
000000d0: 0d5a 10bf 8cf9 a1be 0798 cd3c df68 e93d
000000e0: 2b75 9e3d d686 d23e dc35 463d e5a7 b3be
000000f0: fb3c eebe f252 1cbf 7c31 633e aa30 82be
00000100: d168 bcbc 81c2 32be 3590 863e 24f8 0c3e
00000110: 28cf 02be 1911 9e3e 45d3 efbd 645f 3d3e
00000120: 19ae 833e 2e48 d43d 6028 0e3f d55e cc3a
00000130: 7950 84bd 0c37 fd3e e54b 7a3e 5aea 87be
00000140: 49b2 25bf 3089 d03d dbfb af3e 22ac 8ebd
00000150: c617 ddbe 87c8 573e cbea 103f 557a 703e
00000160: 7d36 90be 213f 80bd 85d4 e8be f317 9cbd
00000170: 2485 b93d e25a bc3d d065 adbc 2e9e a8bc
00000180: ef51 aebe a0ea 7e3d e125 4d3e 3f00 d6bc
00000190: d7c8 0e3e 65e0 c0be 06c1 273d bf15 11bf
000001a0: c59a e63e ddb9 b1be 1540 00bf 6878 b93e
000001b0: 1384 223d 2b14 e7be 5d1a 113e 1d4c 5dbe
000001c0: 85a0 aabe e74d d03e 0e9c 473e 03f3 ebbd
000001d0: 5bec d6be d34c 8f3e 8487 afbe ef3c 723e
000001e0: 0c51 4abd c2bd aabe 5d12 c9bd d3d7 433f
000001f0: aa50 523e 257e 00bf 54aa 00bf bc2c 3a3d
00000200: 8b90 babe 1049 e53d c9cd 97be b92a 363e
00000210: aab0 c0be c5a2 53be e6c4 38be 843b 053f
00000220: bf7f 3cbe 634f 393f 281d 1d3e e9e9 93be
00000230: 22f9 26be e6b5 ed3e cbf6 073f 752d 13bf
00000240: f93c b53d 3e8f ffbd 79b7 e93e 5406 e43d
00000250: bf31 eabe 6950 fd3d ec8d f43b b82d 69be
00000260: 21fd 0f3f 7f48 d63e b533 3b3f 2384 51be
00000270: 7628 e83e 3536 f83e f3dc e1bd 9b59 1f3f
00000280: 9e49 a53e ecd7 a7be 029a 413e aebf b2be
00000290: 9510 c73e bf4f f13e 7d65 56be d43e 64be
000002a0: 6b95 0f3e 25b9 393d 3704 a03e 0e6d 093f
000002b0: 3096 59be 9c7a bc3e 6da4 113e b05b 523e
000002c0: cba0 2b3f 0300 5d3e 157e 3fbd e807 d7bc
000002d0: 21c0 253f 8a05 67be 1fd9 d2be 2327 bfbd
000002e0: 02fd f3be 0f2e 003f 0631 fa3d 5a4f 46be
000002f0: 0236 99be 68bb 753e 4d3c 593e 9cbd f4be
00000300: 93be 50be 7ed7 c4bd 9de1 d73e bb27 523e
00000310: 0702 05be 859e 13be 93a5 e33e a8c6 443e
00000320: 4daf 623e 7c4f 03bd 13de 8dbe ceab 24be
00000330: 43ba f1be 412b f93d 9ae2 e13e 3cff b8bd
00000340: 177d 123d 623c f9be 8c34 793d 8515 353f
00000350: df83 fabe 5d77 ac3e 3e51 083f 35b1 c3bd
00000360: a4d1 f83e f416 8c3a 1e53 fc3d 3f16 26bf
00000370: 89ae f1bd 09e6 55be 94bd a8bd 5cc1 393e
00000380: 4084 b0be 4985 85be db47 323f 41a1 a1be
00000390: 80c6 e1be 716b 1bbe de41 3b3e eca9 0c3e
000003a0: 9358 893d 791a 133e 6911 5cbe 05de 023f
000003b0: cdbe 1f3f 0e89 a53e 040b 9fbd 727e 08bf
000003c0: 5245 debe 06ac 14be 545d 8ebe 4221 1a3e
000003d0: aa0c d23e 7ea1 5abe 2474 433f 19b4 f53d
000003e0: 167b 8ebe b5b2 88bc 37be 5fbe cc16 f33e
000003f0: b9c7 a7be 5997 bb3d 834c b93e 5a98 7c3d
-0.62110645 0.14025055 -0.11700781 -0.009246497 0.31376973 0.21799913 0.5175402 -0.055881713
0.025052896 -0.59281605 -0.037487138 -0.31642792 0.011101771 -0.1695799 0.09808415 -0.2850549
0.33388978 -0.15069996 -0.0221671 0.07879831 0.12491345 0.12048116 -0.57556903 0.1801544
0.5174658 -0.42442694 0.28891522 -0.61346173 0.25426432 0.13403168 0.3962699 -0.23452406
0.34798202 0.0165334 -0.0711639 -0.057008907 0.03661462 0.31442955 0.10602202 0.25453016
-0.06653642 0.06809388 0.5290664 0.11252708 0.40460324 0.5783188 -0.03599648 0.09344479
0.038397968 0.29492006 -0.1202856 0.40888983 -0.56387407 -0.31635702 0.025096906 0.11396956
0.07737192 0.41118497 0.048391208 -0.3508903 -0.465309 -0.61064065 0.22186846 -0.25427753
-0.0229992 -0.1745701 0.26281896 0.13766533 -0.12774336 0.3087242 -0.11710218 0.1849342
0.25718763 0.1036533 0.5553036 0.0015592227 -0.064606614 0.4945606 0.24443014 -0.26545984
-0.64725167 0.101824164 0.34371838 -0.069664255 -0.431822 0.21072589 0.56608266 0.23484166
-0.2816657 -0.06262041 -0.4547464 -0.076217555 0.09058598 0.09197022 -0.021166712 -0.020583238
-0.34046885 0.062235475 0.20033981 -0.026123164 0.13943802 -0.376712 0.040955566 -0.56673807
0.45039955 -0.34712115 -0.5009778 0.36224675 0.039676737 -0.45132574 0.14170213 -0.21611066
-0.33325592 0.40684435 0.19493124 -0.1152096 -0.419772 0.279883 -0.34283078 0.23656057
-0.0493937 -0.333479 -0.09817956 0.76501197 0.20538583 -0.5019248 -0.502599 0.04545282
-0.36438403 0.11195576 -0.2964919 0.17789735 -0.37634784 -0.2066756 -0.18043861 0.5204394
-0.18408106 0.7238676 0.15343153 -0.28889397 -0.16305974 0.4642784 0.5311095 -0.57491237
0.0884952 -0.12478493 0.4564779 0.111340195 -0.45741078 0.12368853 0.0074632075 -0.22771347
0.5624562 0.41852185 0.73125774 -0.20460562 0.4534337 0.48478857 -0.11028471 0.622461
0.32282728 -0.32781923 0.18906406 -0.34911865 0.3887984 0.47131154 -0.20937152 -0.22289592
0.14021842 0.045342583 0.31253216 0.5368203 -0.21248698 0.36812294 0.1422288 0.20542789
0.67042226 0.21582036 -0.0467511 -0.026248887 0.6474629 -0.22560707 -0.41181275 -0.093336366
-0.47653967 0.5007028 0.12216382 -0.19366208 -0.29924017 0.23997271 0.21214409 -0.4780091
-0.20385198 -0.096114144 0.42164317 0.20522968 -0.12989055 -0.14415939 0.4446226 0.19216406
0.22137184 -0.032058224 -0.27708492 -0.16081163 -0.4721242 0.12166453 0.44118196 -0.09033057
0.035763826 -0.4867888 0.06084113 0.7073596 -0.48928735 0.33684817 0.53248966 -0.09555284
0.48597443 0.0010687993 0.12320541 -0.64877695 -0.11800868 -0.20888533 -0.08239284 0.18140167
-0.344759 -0.2607825 0.6964089 -0.3156834 -0.44096756 -0.15177704 0.18286845 0.13736695
0.06706347 0.14365567 -0.21491016 0.51120025 0.62400514 0.32331127 -0.07765773 -0.5331794
-0.43412262 -0.14518747 -0.2780558 0.1505175 0.41025287 -0.21350667 0.7634909 0.119972415
-0.27828282 -0.016686777 -0.21849905 0.4747833 -0.32769564 0.09159727 0.36191186 0.06166873
