app/src/main/ml/mental_health_model_new.tflite (tflite, 7696 bytes, 8 tensors)

arith.constant f4 [4, 8]
0.009531797 -1.4879769 0.5372212 -0.5625627 0.0026818044 0.16644418 0.123736806 1.6812754
0.73519427 -0.61866885 -0.57583666 0.58440024 -0.49324784 -1.0648154 0.726297 -0.14918946
0.5741773 0.15749943 0.5484441 0.23334861 -0.93207633 0.82698613 -0.8578803 0.32670867
-1.2862037 0.82764626 0.028376808 -0.9211093 0.29858157 0.0495325 -0.9863828 -1.1096472
00000000: 412b 1c3c 0776 bebf 5487 093f 1c04 10bf
00000010: 36c1 2f3b 5870 2a3e b969 fd3d 0834 d73f
00000020: b135 3c3f 1561 1ebf 086a 13bf 419b 153f
00000030: fb8a fcbe df4b 88bf 9aee 393f 1fc5 18be
00000040: 49fd 123f 8847 213e d566 0c3f f0f2 6e3e
00000050: 8e9c 6ebf 5db5 533f 0b9e 5bbf 5c46 a73e
00000060: 53a2 a4bf a0e0 533f 7b76 e83c d2cd 6bbf
00000070: afdf 983e 97e2 4a3d 9583 7cbf eb08 8ebf

arith.constant1 f4 [8, 16]
0.6251854 0.07246369 0.16243044 0.8601842 1.0933565 -0.047615536 -0.3892581 0.2795114
0.6957885 -0.44240537 -0.4287273 0.35037276 0.1411437 -0.14005758 0.5357137 0.40365106
0.96643853 0.27980763 0.40071663 0.15045674 -0.6467772 -0.4169235 0.34110478 0.07342504
0.57866013 0.4002082 -0.41108954 0.1288041 -0.8751035 -0.57749766 1.0434221 -0.7686937
-0.37228587 -0.37746605 -0.0042331233 -0.42305782 -0.042720806 -0.7426587 -0.39330545 0.6764541
0.5458022 -0.42399102 -0.35542917 0.25836602 -0.45879444 -0.4194903 0.24767382 0.69398177
0.7005946 0.48557836 0.42358667 0.21182731 -0.74491274 -0.43236545 -0.23610578 -0.5709262
-0.259576 0.10450858 -0.35897535 -0.36787477 -0.31174693 0.38441133 -0.111421004 0.30867505
-0.6861207 0.06854004 0.090511955 -0.7970567 0.0666566 0.402685 0.70409817 0.18157883
0.25715074 0.24133575 -0.18354782 0.7362375 0.4624241 0.2975187 -0.1818778 1.102709
0.82386005 0.33283594 0.3389645 0.59708935 0.92501456 -0.105023965 0.31204692 -0.79737085
-0.58156455 -0.12668881 -0.22128415 0.6012848 -0.8287631 0.48387805 -0.011607305 -0.75960463
0.57774943 0.3790719 0.051642526 0.4191132 0.45798194 -0.0124969175 -0.51462615 0.17178741
0.023867777 -0.8974073 -0.3784355 0.25836834 0.24472581 0.14832228 -0.8756223 0.8216085
-1.0803311 0.44685665 -0.061310407 -0.31335542 1.2590432 0.47049266 -0.4620695 -0.8035942
-0.9936778 0.3522524 0.24638322 0.35138988 -0.1533971 0.30304906 0.17897676 0.5176958
00000000: 260c 203f d867 943d 2a54 263e 0835 5c3f
00000010: 1bf3 8b3f 8208 43bd d64c c7be 1e1c 8f3e
00000020: 321f 323f f582 e2be 2582 dbbe 0f64 b33e
00000030: f987 103e 416b 0fbe 8824 093f 5aab ce3e
00000040: 8468 773f f242 8f3e bb2a cd3e 5511 1a3e
00000050: 3193 25bf ff76 d5be 49a5 ae3e de5f 963d
00000060: 1223 143f 17e8 cc3e 547a d2be 39e5 033e
00000070: c806 60bf e3d6 13bf db8e 853f 1cc9 44bf
00000080: 419c bebe 3b43 c1be 03b6 8abb 099b d8be
00000090: 03fc 2ebd e11e 3ebf 555f c9be 192c 2d3f
000000a0: b1b9 0b3f 5a15 d9be d0fa b5be 8d48 843e
000000b0: 1be7 eabe 6fc7 d6be 359e 7d3e caa8 313f
000000c0: 2b5a 333f ba9d f83e 5ae0 d83e 42e9 583e
000000d0: 9ab2 3ebf 015f ddbe b7c5 71be 3828 12bf
000000e0: 25e7 84be 9808 d63d 9ecb b7be 155a bcbe
000000f0: 4b9d 9fbe 90d1 c43e b230 e4bd a80a 9e3e
00000100: 9ba5 2fbf b85e 8c3d 555e b93d e80b 4cbf
00000110: 4183 883d ba2c ce3e c73f 343f cdef 393e
00000120: 43a9 833e b820 773e f6f3 3bbe 107a 3c3f
00000130: dac2 ec3e 5f54 983e 2d3e 3abe 9225 8d3f
00000140: 7ee8 523f 7969 aa3e c18c ad3e d9da 183f
00000150: c1cd 6c3f ce16 d7bd 9dc4 9f3e 7f20 4cbf
00000160: 6ae1 14bf b6ba 01be 5098 62be cded 193f
00000170: d229 54bf ddbe f73e 912c 3ebc 7375 42bf
00000180: 63e7 133f b615 c23e 1d87 533d 0196 d63e
00000190: 9c7c ea3e dfbf 4cbc 8abe 03bf 0ae9 2f3e
000001a0: 5b86 c33c 7cbc 65bf 4cc2 c1be db48 843e
000001b0: 6799 7a3e cce1 173e c828 60bf ef54 523f
000001c0: 4a48 8abf 65ca e43e 9f20 7bbd 1f70 a0be
000001d0: 5428 a13f 6ae4 f03e 6094 ecbe 59b8 4dbf
000001e0: ab61 7ebf 6d5a b43e e24b 7c3e 60e9 b33e
000001f0: 2114 1dbe 3f29 9b3e af45 373e b687 043f

arith.constant2 f4 [16, 32]
0.42427397 -0.39856884 0.23797327 0.41507477 -0.3573358 0.013860955 0.4214041 0.08524241
0.06335506 -0.22092445 0.18586574 0.64537865 0.5081443 -0.027867643 0.014460782 -0.20547658
-0.032581262 -0.31170398 -0.1213503 0.8908234 -0.08262918 0.43422586 -0.3366411 -0.4257613
1.1339587 0.34291106 0.40668675 -0.26913288 0.12848517 0.1607707 0.1167221 -0.36385697
0.1971955 -0.26525065 -0.15027273 -0.52545017 -0.28310964 -0.29009506 0.117814206 -0.035858728
-0.09068871 0.32892781 0.5314843 0.09210199 0.22368285 -0.25555533 -0.13139409 -0.1537305
-0.010245057 -0.018245876 0.41902667 0.09705663 -0.53844726 0.12751564 0.16554931 0.113802955
0.41412225 -0.06330492 0.32296902 -0.017132232 -0.057332117 0.05307967 -0.5007318 0.09153503
0.5827961 0.016643854 0.27940765 0.17130174 0.31281915 0.026815847 -0.11818153 0.18866765
-0.17752934 -0.55762154 -0.40782246 0.28406224 0.22362947 -0.06552642 -0.24555641 -0.13605359
-0.15014103 0.4061237 0.43628952 1.4031287 -0.43868476 -0.23068199 -0.2736888 -0.12836187
0.6488222 0.20751329 0.37184408 0.30581695 -0.20308731 0.17133081 0.24583451 0.087140985
-0.11558765 0.09328835 0.13426062 0.52381647 0.52588844 -0.0348115 -0.35894054 0.49210736
-0.8821534 0.19818589 0.2585722 -0.04338623 -0.4430327 -0.1833943 -0.20920813 0.41059062
-0.34075627 0.08903487 0.21558285 0.34628674 0.28594598 -0.1286214 -0.04924227 -0.45567694
0.1601436 0.23812756 0.2576461 -0.026182158 0.57910234 -0.23306605 -0.28746802 0.5573192
-0.5896913 -0.22513413 -0.49201363 0.015355903 -0.32812208 0.0019076923 0.15513258 -0.26554012
-0.38196334 1.045622 -0.36054096 -0.29368007 -0.43206003 0.9042338 0.26198268 0.5637468
-0.51115304 0.40718487 -0.10167457 -0.15383185 0.17728075 -0.32538053 -0.13698912 0.25098965
0.4044504 0.25282168 0.26837805 -0.036596995 0.39791992 0.05593186 -0.27431285 0.18674985
-0.2258656 0.14896628 0.301785 0.029213013 0.26046655 0.21373549 -0.19819048 -0.14516933
-0.1115738 0.26252395 -0.40088117 0.24717726 0.40780145 0.18105775 0.15762696 0.6022377
0.2593934 -0.12689887 -0.48430997 -1.6547832 0.016945627 0.3869924 0.0851033 0.74397147
-0.9600875 0.14578056 -0.33862823 -0.1374482 0.11242655 -0.14531033 0.31167606 -0.015412209
0.019757254 0.08684875 0.16591096 0.11981039 0.4775174 -0.043381076 -0.12347654 -0.06604708
0.14032789 0.11530361 -0.25935364 0.34530216 -0.026314793 0.06416374 -0.10293876 -0.59806025
-0.3560942 0.40782887 -0.4502522 -0.23133798 0.02357904 0.065218166 0.009482185 0.41209006
0.56206584 0.26299024 -0.24446394 0.28510278 0.01813777 -0.11583374 0.37353083 -0.5353323
-0.3255599 -0.08210583 -0.15701795 -0.6435085 0.12609024 -0.09777693 0.20677191 0.12906514
-0.17614776 -0.70766133 0.21650168 -0.017906317 0.06555472 -0.21922308 -0.09004072 -0.41257846
0.49891078 -0.17809159 0.70822346 0.110559195 -0.053009886 0.17829353 0.53591764 -0.10679991
-0.043277957 0.4615197 -0.7227016 0.3209672 0.56080663 -0.020042714 0.36337948 0.1033632
00000000: 703a d93e 3711 ccbe 44af 733e ae84 d43e
00000010: b8f4 b6be 0f19 633c 47c2 d73e 9393 ae3d
00000020: 4cc0 813d 053a 62be 9753 3e3e 8937 253f
00000030: bf15 023f af4a e4bc eaec 6c3c 7468 52be
00000040: ee73 05bd aa97 9fbe 8286 f8bd 010d 643f
00000050: 7d39 a9bd da52 de3e 395c acbe 63fd d9be
00000060: 8f25 913f 0a92 af3e 3f39 d03e c9cb 89be
00000070: 9e91 033e 13a1 243e ff0b ef3d 764b babe
00000080: 9eed 493e efce 87be 18e1 19be e783 06bf
00000090: bff3 90be 5787 94be 9348 f13d 9ae0 12bd
000000a0: 01bb b9bd 3a69 a83e 5b0f 083f f89f bc3d
000000b0: 1e0d 653e 26d8 82be 2c8c 06be 876b 1dbe
000000c0: e2da 27bc 6078 95bc aa8a d63e a0c5 c63d
000000d0: aed7 09bf 7693 023e c285 293e 8611 e93d
000000e0: d507 d43e 03a6 81bd 325c a53e e558 8cbc
000000f0: 15d5 6abd 116a 593d f62f 00bf b876 bb3d
00000100: 2032 153f b158 883c 850e 8f3e b969 2f3e
00000110: d529 a03e e8ac db3c 2809 f2bd 1832 413e
00000120: 40ca 35be 49c0 0ebf 1bce d0be 9b70 913e
00000130: 20ff 643e b732 86bd 2473 7bbe a251 0bbe
00000140: 92be 19be 72ef cf3e 5761 df3e b999 b33f
00000150: 4a9b e0be e637 6cbe f020 8cbe 4b71 03be
00000160: 3619 263f 5d7e 543e 5962 be3e 0a94 9c3e
00000170: 1ff6 4fbe 5871 2f3e 0bbc 7b3e f976 b23d
00000180: 38b9 ecbd f60d bf3d 9e7b 093e d618 063f
00000190: a0a0 063f 8196 0ebd 0ec7 b7be 7ff5 fb3e
000001a0: ced4 61bf 3ef1 4a3e 9363 843e c2b5 31bd
000001b0: 2fd5 e2be b7cb 3bbe a83a 56be ef38 d23e
000001c0: 9b77 aebe ea57 b63d c0c1 5c3e 7f4c b13e
000001d0: 8367 923e 54b5 03be 43b2 49bd 7d4e e9be
000001e0: affc 233e b6d7 733e 31ea 833e f77b d6bc
000001f0: 0d40 143f dea8 6ebe 022f 93be 79ac 0e3f
00000200: 02f6 16bf 9089 66be 36e9 fbbe 5397 7b3c
00000210: 9eff a7be 880b fa3a 13db 1e3e e0f4 87be
00000220: b390 c3be f1d6 853f d398 b8be 3c5d 96be
00000230: f936 ddbe de7b 673f 9822 863e b651 103f
00000240: edda 02bf 897a d03e c23a d0bd 1986 1dbe
00000250: 1689 353e 4798 a6be e046 0cbe b781 803e
00000260: 1f14 cf3e d871 813e d968 893e bbe6 15bd
00000270: 29bc cb3e ce18 653d bc72 8cbe 5a3b 3f3e
00000280: 5049 67be 9e8a 183e 9083 9a3e 2150 ef3c
00000290: df5b 853e 7add 5a3e 72f2 4abe 45a7 14be
000002a0: ce80 e4bd 8a69 863e 4c40 cdbe 091c 7d3e
000002b0: 5acb d03e 3467 393e f668 213e 402c 1a3f
000002c0: 36cf 843e c7f1 01be 7af7 f7be f0cf d3bf
000002d0: 8ed1 8a3c de23 c63e a44a ae3d ea74 3e3f
000002e0: 4bc8 75bf 8047 153e ae60 adbe 39bf 0cbe
000002f0: e43f e63d 3bcc 14be 0194 9f3e 7d83 7cbc
00000300: f7d9 a13c c2dd b13d 90e4 293e 265f f53d
00000310: 297d f43e 5bb0 31bd 45e1 fcbd b143 87bd
00000320: 1db2 0f3e 4d24 ec3d 00ca 84be 72cb b03e
00000330: 1f92 d7bc 4768 833d 8ed1 d2bd 7a1a 19bf
00000340: fb51 b6be f2ce d03e 7587 e6be dde3 6cbe
00000350: d528 c13c 1a91 853d 2b5b 1b3c 78fd d23e
00000360: 8ce3 0f3f a8a6 863e c154 7abe fef8 913e
00000370: a995 943c 3d3a edbd 6f3f bf3e 8a0b 09bf
00000380: caaf a6be 1a27 a8bd 50c9 20be f9bc 24bf
00000390: cd1d 013e 453f c8bd 04bc 533e a729 043e
000003a0: 1460 34be 4b29 35bf 9eb2 5d3e 45b0 92bc
000003b0: 8e41 863d 047c 60be 4567 b8bd 7c3d d3be
000003c0: 3c71 ff3e a45d 36be 224e 353f dc6c e23d
000003d0: e520 59bd 9492 363e e631 093f e9b9 dabd
000003e0: 3a44 31bd 4f4c ec3e f902 39bf d055 a43e
000003f0: 0691 0f3f 9e30 a4bc e00c ba3e 16b0 d33d

arith.constant3 f4 [4]
-0.37467253 -0.13838536 0.005312844 0.45867214
00000000: 14d5 bfbe e4b4 0dbe 5e17 ae3b 13d7 ea3e

arith.constant4 f4 [8]
0.07101813 0.11817832 -0.0407714 0.009929925 0.016687375 0.040938456 0.1016281 -0.22557738
00000000: f471 913d 7a07 f23d e9ff 26bd 20b1 223c
00000010: f6b3 883c 15af 273d 6522 d03d c2fd 66be

arith.constant5 f4 [16]
0.21293053 0.0 0.1078676 0.12145584 -0.078899495 -0.1548405 0.09225197 0.15197077
0.0054343613 -0.051911015 -0.15766034 0.05457453 0.00069221284 -0.11645065 0.11079031 0.055826195
00000000: 760a 5a3e 0000 0000 b0e9 dc3d d7bd f83d
00000010: 0f96 a1bd 828e 1ebe 9aee bc3d 3a9e 1b3e
00000020: ba12 b23b a5a0 54bd b671 21be 8b89 5f3d
00000030: 9e75 353a ae7d eebd 08e6 e23d 02aa 643d

sequential_1_1/dense_4_1/Add/ReadVariableOp f4 [32]
0.10752941 -0.08013913 0.11030647 0.06991866 0.13043539 -0.00975455 0.0 0.1084135
-0.21528588 -0.07136416 0.17150348 0.02163977 0.0 -0.11019965 -0.07407459 0.27214962
-0.048449084 -0.050061636 0.1179501 0.09571116 -0.2021277 0.0 -0.03619427 -0.187172
0.1480951 0.05837039 0.17951171 0.099280134 0.15363455 0.0 -0.008357688 0.17134099
00000000: 6138 dc3d fc1f a4bd 5ce8 e13d 8431 8f3d
00000010: db90 053e 8cd1 1fbc 0000 0000 e607 de3d
00000020: e773 5cbe 5f27 92bd 9c9e 2f3e e345 b13c
00000030: 0000 0000 5bb0 e1bd 6bb4 97bd 3257 8b3e
00000040: 8c72 46bd 6e0d 4dbd d28f f13d 3604 c43d
00000050: 90fa 4ebe 0000 0000 7140 14bd 04aa 3fbe
00000060: 3ea6 173e ca15 6f3d ebd1 373e 6253 cb3d
00000070: 6052 1d3e 0000 0000 afee 08bc 0374 2f3e

sequential_1_1/dense_4_1/MatMul f4 [32, 18]
-0.3398951 -0.016406016 -0.064951256 0.03072979 -0.29859254 0.23637375 0.5239741 -0.22359501
0.85296196 0.1954845 -0.0038741569 0.14876026 0.45449418 -0.58770317 -0.7647318 0.65407294
-0.07995031 0.076026924 0.13910392 -0.14532323 0.107613884 0.548669 0.16899642 0.19421256
-0.19157724 0.06635177 -0.43124533 0.026169105 -0.41441488 -0.23379187 -0.08102097 0.29202604
-0.13683142 -0.3677987 -0.09560677 0.2819555 0.063556656 0.26371953 -0.43644458 0.63173234
-0.16358629 -0.2156238 0.33214736 0.04840186 0.31835485 0.72304744 0.2637561 0.42665538
0.28794926 -0.14499167 -0.36979523 0.70016676 0.031064935 -0.36974707 -0.6712365 0.37777388
0.44240597 0.5952872 -0.72697663 0.3257049 -0.4918694 0.7672117 0.42191574 -0.08337624
-0.6201875 -0.025282765 0.019130984 0.18350577 0.5645347 0.3222803 -0.6803829 0.38183492
0.44608843 -0.35002133 0.040403422 -0.3811485 0.25456545 0.22599626 0.21401148 -0.51126707
0.7719334 0.6512821 0.41555062 -0.19874628 0.7909828 -0.20214094 0.13663736 0.013494509
-0.32460403 -0.052586887 -0.13578348 0.1860826 0.19966663 -0.46844283 -0.57563984 -0.28714308
0.08622388 0.117521964 0.010042258 -0.47542244 -0.23041734 0.10324929 -0.1234395 0.09767069
-0.10467164 -0.42616606 -0.43897915 0.33729354 -0.21374476 0.033565994 -0.080137186 -0.2490635
0.10666408 -0.073476784 -0.25153092 -0.4728783 -0.25341392 -0.06338072 -0.39775643 0.3929273
-0.34875283 0.41766047 0.19922203 0.062288076 -0.32150745 0.33395788 0.15682395 0.45656136
-0.16425014 0.22866206 0.29834104 0.27078816 -0.32666674 0.027458303 0.5616293 -0.52847767
-0.08013681 0.28600344 -0.1708457 0.009810338 0.19473709 -0.41243815 -0.27133667 0.15166691
-0.35747182 -0.15033658 0.00069001794 0.12021888 0.5082463 0.26115215 0.15900388 -0.022204855
-0.5153244 -0.45681265 -0.21689005 0.68657637 -0.39422387 -0.16361785 -0.35115975 0.3013913
1.1154258 -0.20306477 -0.18950196 0.4855755 -0.5522943 -0.72827566 0.702927 -0.25261116
0.09669923 0.34428766 -0.5675721 -0.23883724 0.5171775 -0.48720843 0.42688888 -0.68826765
0.7454283 0.38477713 -0.31697738 -0.6116459 0.4311989 0.5281493 -0.32963365 -0.0772301
-0.14001262 -0.04100373 0.17788339 -0.61037904 -0.5192259 -0.26893753 0.33140862 0.2873101
-0.02463973 0.24605945 -0.21769823 -0.19339916 -0.09822403 -0.47311488 0.3869711 0.11236163
-0.2345413 -0.0044947946 -0.45958492 0.15829557 0.27464983 0.52435017 -0.7234178 -0.23708655
0.7940704 0.13010404 -0.72323114 -0.4228223 -0.087322876 -0.24574141 0.3723911 -0.53928846
-0.061932202 -0.14293942 0.007070285 0.030906955 0.007285809 -0.49564296 -0.39465296 -0.33341303
0.053662825 0.0037680678 -0.15049402 -0.34489655 0.2687902 -0.32253549 -0.6157051 0.09750001
0.63809943 -0.25062773 -0.41698867 -0.4562612 -0.031935718 0.061420977 0.7578818 0.4483086
0.11833058 0.062365927 -0.55316156 -0.10719366 -0.58913857 -0.042259604 -0.32489675 0.84480846
0.4988174 -0.4943272 -0.059784114 0.16324496 0.20797844 -0.13218895 -0.038722284 -0.40755028
00000000: bb06 aebe e965 86bc 2a05 85bd 0abd fb3c
00000010: 1fe1 98be f60b 723e 2b23 063f 17f6 64be
00000020: b75b 5a3f 172d 483e 91e5 7dbb 9c54 183e
00000030: 76b3 e83e b773 16bf 77c5 43bf 5371 273f
00000040: fdbc a3bd 01b4 9b3d 4271 0e3e 9dcf 14be
00000050: ab64 dc3d 9275 0c3f 660d 2d3e a8df 463e
00000060: d32c 44be 70e3 873d 30cc dcbe 9760 d63c
00000070: 302e d4be 2367 6fbe 53ee a5bd 7084 953e
00000080: 891d 0cbe 1c50 bcbe 7bcd c3bd 795c 903e
00000090: fe29 823d 3f06 873e aa75 dfbe 36b9 213f
000000a0: 2a83 27be 7ccc 5cbe 380f aa3e 0741 463d
000000b0: 68ff a23e a319 393f 0a0b 873e 9372 da3e
000000c0: 166e 933e b278 14be cd55 bdbe 213e 333f
000000d0: e47b fe3c 7d4f bdbe 28d6 2bbf 946b c13e
000000e0: 0983 e23e be64 183f 241b 3abf cbc2 a63e
000000f0: 4ed6 fbbe fc67 443f 5705 d83e 2ac1 aabd
00000100: 9cc4 1ebf cd1d cfbc 95b8 9c3c f0e8 3b3e
00000110: 5985 103f ec01 a53e 932d 2ebf de7f c33e
00000120: b465 e43e ff35 b3be 0f7e 253d e525 c3be
00000130: 6756 823e 906b 673e d325 5b3e 66e2 02bf
00000140: 6d9d 453f 6cba 263f 0dc3 d43e 2584 4bbe
00000150: d97d 4a3f 09fe 4ebe aaea 0b3e 1318 5d3c
00000160: 8032 a6be 5965 57bd d30a 0bbe 708c 3e3e
00000170: 6975 4c3e bdd7 efbe 225d 13bf 6b04 93be
00000180: 2596 b03d 5baf f03d 4888 243c 926a f3be
00000190: 86f2 6bbe 5d74 d33d d9cd fcbd 9207 c83d
000001a0: 165e d6bd 7032 dabe e0c1 e0be bdb1 ac3e
000001b0: e8df 5abe 7f7c 093d f71e a4bd 810a 7fbe
000001c0: b272 da3d ff7a 96bd a9c8 80be 1b1d f2be
000001d0: 78bf 81be c0cd 81bd bba6 cbbe c42d c93e
000001e0: bb8f b2be 98d7 d53e dc00 4c3e c821 7f3d
000001f0: a09c a4be 87fc aa3e 7596 203e 69c2 e93e
00000200: 3031 28be 6326 6a3e 28c0 983e bfa4 8a3e
00000210: dd40 a7be 3cf0 e03c f0c6 0f3f 504a 07bf
00000220: c51e a4bd 0b6f 923e 2df2 2ebe 8abb 203c
00000230: 2969 473e 182b d3be a4ec 8abe 924e 1b3e
00000240: 8c06 b7be d5f1 19be 52e2 343a 5135 f63d
00000250: 6e1c 023f bcb5 853e ead1 223e f5e6 b5bc
00000260: 4dec 03bf 59e3 e9be 6d18 5ebe 78c3 2f3f
00000270: b6d7 c9be 708b 27be 36cb b3be f64f 9a3e
00000280: 46c6 8e3f 36f0 4fbe cd0c 42be 5a9d f83e
00000290: 2963 0dbf 4670 3abf 06f3 333f 4056 81be
000002a0: 3f0a c63d 7946 b03e 684c 11bf c091 74be
000002b0: bf65 043f 6273 f9be 2e91 da3e 4f32 30bf
000002c0: 64d4 3e3f 8201 c53e dc4a a2be d394 1cbf
000002d0: 1ac6 dc3e cb34 073f bec5 a8be d12a 9ebd
000002e0: 785f 0fbe 87f3 27bd 1027 363e cd41 1cbf
000002f0: fdeb 04bf 2eb2 89be 64ae a93e 4f1a 933e
00000300: 42d9 c9bc 02f7 7b3e 49ec 5ebe 6e0a 46be
00000310: ae29 c9bd 1d3c f2be 1321 c63e db1d e63d
00000320: 982b 70be 1249 93bb b74e ebbe 3c18 223e
00000330: e79e 8c3e d03b 063f e931 39bf d1c6 72be
00000340: 3348 4b3f fe39 053e ad25 39bf 2a7c d8be
00000350: 56d6 b2bd a3a3 7bbe 0caa be3e cf0e 0abf
00000360: 9fac 7dbd b65e 12be d9ad e73b 9530 fd3c
00000370: ccbd ee3b eac4 fdbe f40f cabe 1db5 aabe
00000380: 8dcd 5b3d b0f1 763b 1b1b 1abe 4896 b0be
00000390: de9e 893e 5f23 a5be d99e 1dbf 16ae c73d
000003a0: 7c5a 233f 4752 80be 8a7f d5be 119b e9be
000003b0: 07cf 02bd 9094 7b3d 8b04 423f b488 e53e
000003c0: 4e57 f23d 6a73 7f3d ff9b 0dbf 5a88 dbbd
000003d0: c9d1 16bf 6818 2dbd de58 a6be 5e45 583f
000003e0: ff64 ff3e 7418 fdbe 30e0 74bd b029 273e
000003f0: 4df8 543e 8a5c 07be 429b 1ebd 6eaa d0be
