app/src/main/ml/mental_health_model_str.tflite (tflite, 7652 bytes, 8 tensors)

arith.constant f4 [3, 8]
000000 f5 9b 29 3f 89 01 bc be d4 97 29 3f 04 14 d8 3e
       0.66253597 -0.3671992 0.66247296 0.4220277
000010 08 86 5d 3f b3 e2 e2 3e 43 26 b2 bf 0b 3c 43 be
       0.8653264 0.44313583 -1.3917927 -0.19065873
000020 ed dd 17 bd 9c 96 0f 3e 89 42 5a be b8 7a f1 bd
       -0.03707688 0.14022297 -0.21314444 -0.11790985
000030 e5 bc 62 3e 06 6c 1e bf aa 8a 01 3f bd b3 1b be
       0.2214237 -0.6188358 0.5060221 -0.15205283
000040 61 7e 3f bf c6 63 93 bf 5b 7b 0c 3f b3 7e 31 bf
       -0.74802214 -1.1514823 0.54875726 -0.6933395
000050 a5 d2 c7 be 2d 0a b6 3e 5e df f2 3d 2b 89 ef 3e
       -0.39027897 0.35554639 0.1185901 0.46784338

arith.constant1 f4 [8, 16]
000000 20 7b 92 bc 00 08 e3 bc 1d e4 b2 3e 68 6a 74 3e
       -0.017880976 -0.027713776 0.34939662 0.23868716
000010 11 ae 14 bf 4c e4 92 be ca 8e 65 be dc 46 9b 3e
       -0.58078104 -0.28689802 -0.22417751 0.303275
000020 73 fe 0a 3e 44 62 54 bf e5 0b 87 be 24 7c 97 be
       0.13573627 -0.8296244 -0.26376262 -0.295869
000030 d1 cd 04 3f f6 ea 39 be d6 94 8f bd 4b 87 0e bf
       0.5187655 -0.18156037 -0.0701081 -0.5567519
000040 10 49 15 3f 9f 25 b5 3c a7 9b 5b bd ca 38 a4 be
       0.5831461 0.022112666 -0.05361524 -0.32074577
000050 17 9f 17 bf 3d ee 0c bf cd ba 36 3e 0f 2d 67 3e
       -0.59227127 -0.5505102 0.17844696 0.22575782
000060 d3 bd 61 3e d7 e8 2e be 6f 08 f9 be 43 85 fb 3e
       0.22045068 -0.17081009 -0.48639247 0.49125108
000070 a9 bd 5c bf a8 3e ff be 2e 93 1c be e0 1a 4c be
       -0.862269 -0.4985249 -0.1529052 -0.19932127
000080 95 ea 9e bc ef f8 0d bd 76 77 6d 3e 14 6c 23 3d
       -0.019398967 -0.03466123 0.23190102 0.039897993
000090 0e af a2 3e ae cb 52 3e 0f 2b 46 3e be 24 f7 bd
       0.3177418 0.2058551 0.19352363 -0.12067555
0000a0 16 1e 6f be 5c 43 66 3e aa 91 22 3f 4b d8 86 be
       -0.2335132 0.22486633 0.63503516 -0.26336893
0000b0 73 27 76 3f 94 39 44 bd 3d b7 6d 3e f2 02 20 bf
       0.96153945 -0.047906473 0.23214431 -0.62504494
0000c0 c7 fb 9c 3c 78 cb 20 be 55 c8 02 bf ec fb e1 3d
       0.019163026 -0.15702617 -0.5108693 0.110343784
0000d0 ac 8b 62 3d e3 1d 08 3e bd 2f 18 bf 9d bf 08 3a
       0.055308983 0.13292651 -0.5944784 0.0005216541
0000e0 e3 96 8b 3e ae 37 58 be a3 9d 5e be 21 9a 91 ba
       0.27263555 -0.2111499 -0.21739821 -0.0011108556
0000f0 aa ca 10 3e b7 c7 75 3e 22 27 d6 3e b6 86 b2 be
       0.1413981 0.24001966 0.4182673 -0.348684
000100 fa 34 17 bf 91 9c f7 bd 77 8d 59 3c 87 98 e6 3e
       -0.5906521 -0.120904095 0.013278357 0.45038244
000110 39 2d a2 bd 0b 68 42 be 12 2c c1 be 77 d2 8d bd
       -0.07918782 -0.18985002 -0.37728935 -0.069249086
000120 57 bf fe 3e 32 3c 16 3f 53 61 40 3f 93 c6 1e bf
       0.49755356 0.586856 0.75148505 -0.6202175
000130 ce 11 cb 3d 9b 1f b2 be 15 39 87 be 1e 4c 32 be
       0.09915505 -0.34789738 -0.26410738 -0.17411849
000140 04 9b ea 3d 29 16 e9 be e6 ee 51 be 11 2c f0 3d
       0.11455348 -0.4552472 -0.20501289 0.11727155
000150 7f 37 37 3d b8 89 c7 3e 1a 29 ce be 1f cf 13 bd
       0.04473066 0.3897226 -0.40265733 -0.036086198
000160 82 77 77 be 44 62 d9 3e a1 4c 13 3f c7 5c bf be
       -0.24166682 0.42457783 0.575388 -0.3737547
000170 f2 f1 7b 3f 41 fe a8 3d 71 84 63 3e aa 62 a0 3e
       0.98416054 0.0825162 0.22218491 0.31325275
000180 9e fa 08 3f d3 9b d3 3e 9f fc fc be 8e 7d 02 3f
       0.5350741 0.41329822 -0.49411485 0.5097283
000190 00 e1 2b bf e4 07 ef bd 30 02 48 3f 6c 04 9c 3e
       -0.671402 -0.11671427 0.7812834 0.30472124
0001a0 91 18 a4 bd 7c f8 66 3e 61 2e 03 bf 30 d0 34 3e
       -0.08012498 0.22555727 -0.51242644 0.17657542
0001b0 16 04 e2 be e4 8e 30 bf ab 39 d6 be f9 2f 5a 3f
       -0.44143742 -0.68968034 -0.41840872 0.8522945
0001c0 fc 5d 78 3e 18 28 f1 be 4f 99 1a bf 6a 6b be 3e
       0.24254602 -0.47100902 -0.6039018 0.37191325
0001d0 80 5b 81 be 68 21 9e be e4 a6 17 be 40 09 f2 be
       -0.2526512 -0.30884862 -0.14809757 -0.47272682
0001e0 e8 bd 87 be dc 79 a3 3d de 5b a3 3d 0c 33 a1 be
       -0.26512074 0.07982227 0.07976507 -0.31484258
0001f0 3e 0b 30 3e 78 75 17 3f b4 e4 21 3f aa f3 25 3f
       0.17191789 0.5916362 0.632396 0.64824927

arith.constant2 f4 [16, 32]
000000 16 b7 b8 3d 97 54 a4 bd a5 c3 27 bc 4b ee 22 3f
       0.09019296 -0.08023947 -0.010239516 0.63644856
000010 76 e5 4a 3d d7 fb 05 3f 2c df 4b be 87 64 1c 3e
       0.049535237 0.523374 -0.19909352 0.15272723
000020 ce f5 39 3f a4 2a 7b be 4b a3 bd 3e 52 6a 6a be
       0.72640693 -0.24527985 0.37038645 -0.2289212
000030 76 48 96 be 6b 2e 90 3d d3 85 a0 3e 40 7f 51 3f
       -0.29352158 0.070401035 0.313521 0.81834793
000040 66 1a 87 be c7 79 18 3f 74 cf e8 bb c7 22 45 be
       -0.26387328 0.5956082 -0.0071048085 -0.19251548
000050 cb a3 87 3d d8 18 e3 3e f0 74 4e 3d 18 3b d0 3e
       0.06623038 0.44354892 0.05040449 0.40670085
000060 34 02 87 3c fa 11 63 3e 69 21 ca 3e 38 ce 89 3e
       0.016480543 0.22174826 0.39478615 0.26915145
000070 f8 7b d1 be c9 7a d3 3d c1 41 0a 3e dd bc 01 3f
       -0.40914893 0.10326154 0.13501646 0.5067881
000080 ab 53 a4 3d 9d cd 4c be 12 57 38 be 2d fa 01 bd
       0.08023771 -0.2000031 -0.18001965 -0.031732727
000090 7f f6 16 be 86 88 92 bd ef b9 21 3e f7 23 ce bd
       -0.14742468 -0.07154946 0.15793584 -0.100654535
0000a0 e1 c2 3b bd e4 58 e4 be c3 ca 66 be d4 0d 95 3e
       -0.045840148 -0.44599068 -0.22538285 0.29112113
0000b0 2d ca b6 bb de 94 6c bd b6 15 e6 be 74 d4 41 be
       -0.0055783004 -0.05775916 -0.4493844 -0.189287
0000c0 e5 b0 41 be d3 87 84 be 44 78 fd 3d 90 74 e7 bd
       -0.18915136 -0.25884876 0.123764545 -0.113015294
0000d0 9d b7 34 3c bd a5 df 3d 97 67 af be 89 3d 5d bd
       0.011030105 0.10920284 -0.3425872 -0.054013763
0000e0 b8 6c c7 be 90 7e 9a be 7e bb be be 5a 37 81 3d
       -0.38950133 -0.30174685 -0.3725242 0.063093856
0000f0 1b b2 ca 3d 88 d4 14 3e 72 3e 1a be 25 22 6c be
       0.09897252 0.14534199 -0.15062883 -0.230599
000100 85 27 28 bd 25 c3 f3 be 54 f0 e3 bd 16 9e c1 3e
       -0.041053314 -0.4760982 -0.11129823 0.37815922
000110 ec 1f c3 3e d8 fd 2c 3e 5f a9 84 3e fb 8f 59 3d
       0.38110292 0.16893709 0.2591047 0.053115826
000120 01 da 97 3e aa 3d 8c 3d 11 c8 0c be 65 5b a7 3d
       0.2965851 0.06847699 -0.13748194 0.08171729
000130 d1 63 5d 3e e6 33 5b be f0 81 1d bd 46 b7 f0 3d
       0.21620108 -0.21406516 -0.038453996 0.11753707
000140 1f 98 1f be de 9d fe bd 25 11 91 bc 50 53 86 3d
       -0.15585373 -0.124324545 -0.01770837 0.06558859
000150 db bb 8c be 0d 97 9c 3e 67 c9 b9 be 5a a4 a2 be
       -0.27487072 0.30583993 -0.3628647 -0.31766015
000160 22 9b cf bb cd f2 06 bf f3 6d ad bc a9 7f e6 be
       -0.006335632 -0.52714235 -0.021170592 -0.45019272
000170 39 df a3 be ef f5 9f 3e c2 ae 9b bc 30 0f 92 bd
       -0.32006243 0.3124232 -0.01900423 -0.07131803
000180 ae 12 90 be 79 6a c3 bd 62 7f 03 be 78 f2 54 3e
       -0.2813925 -0.095417924 -0.12841561 0.2079562
000190 70 23 b5 3e e8 0a ac 3e 49 f8 97 3d dc 3a f9 3d
       0.353786 0.3360207 0.074204035 0.1216943
0001a0 97 89 1d be 71 f0 a0 3e dd 14 58 3e 97 3b 39 bd
       -0.15384518 0.31433442 0.21101709 -0.045222845
0001b0 dc 28 d6 be 8f 20 53 3e 6a 87 6c 3e f8 ee ad 3e
       -0.41828048 0.20617889 0.23098531 0.3397138
0001c0 f6 7e d0 3e fa f8 96 be 73 ff d7 3e ea 33 a3 be
       0.40721864 -0.2948683 0.4218708 -0.31875545
0001d0 74 36 3f bd 43 30 a8 3e 19 60 85 3e 1a ce a3 3e
       -0.04668279 0.3284932 0.2604988 0.3199318
0001e0 6c 5e d3 3d f6 25 4f be ab 94 c4 3e fe bc 14 3e
       0.10320744 -0.20229325 0.38394675 0.1452522
0001f0 58 52 9f 3d 05 a7 e8 3e 1a 12 56 3d 79 ed bf be
       0.07779378 0.45439926 0.052263357 -0.37485865
000200 87 b1 9a 3d 2c 5a 6e 3e 07 cc 52 be bc 1f ca 3d
       0.07553392 0.23276585 -0.20585643 0.09869334
000210 19 51 05 bf 62 e1 32 3d 3b 84 1e 3e fd 27 1f be
       -0.5207687 0.043671973 0.1548013 -0.15542598
000220 e5 39 00 bf d9 ce 99 3a 76 33 22 be 31 09 d6 be
       -0.5008834 0.0011734619 -0.15839943 -0.41803887
000230 f4 4f e1 3d af 9e 34 3e de e3 04 be dd 8b a9 3e
       0.11001578 0.17638658 -0.1297755 0.3311452
000240 31 89 d7 3d d2 4a f8 3c e0 26 87 be 5f e5 1b 3e
       0.10524214 0.030309115 -0.26396847 0.15224217
000250 73 c7 16 3e e1 d6 c6 3e 1a 56 9e be f5 10 fc bd
       0.14724521 0.38835815 -0.30925065 -0.12307922
000260 3e ec 8b 3d ec 16 54 3e 63 16 02 be 76 58 a0 3e
       0.06832169 0.20711869 -0.12703852 0.3131749
000270 4d a0 6e bd 7b 0c b5 bd 17 3b 1b be 56 59 fd be
       -0.058258343 -0.08840271 -0.1515926 -0.4948222
000280 fb a1 ab be 3a 9c 86 bb 1f 13 90 3d 8b 74 02 be
       -0.3352202 -0.004107979 0.07034897 -0.1273977
000290 8b 79 91 3e 08 3f 6a be 62 bf 1d 3e 65 7b b8 be
       0.28413042 -0.22875607 0.15405038 -0.36031643
0002a0 61 30 b2 be 8f 73 ed be 00 72 0d be 6b 9b ab be
       -0.34802535 -0.46377227 -0.13813019 -0.33517012
0002b0 0d 52 92 bd 3c 2c c3 be 65 19 09 3e 35 7e e4 be
       -0.07144556 -0.38119686 0.13388593 -0.44627538
0002c0 42 0e 0c be 0e a7 9a bd a7 84 17 3e 36 63 27 bd
       -0.13677314 -0.075513944 0.14796697 -0.0408661
0002d0 f6 7b f6 bc 50 2c 9a bd 75 1b 5d 3e 19 2a a1 3e
       -0.030088406 -0.07527983 0.21592505 0.3147743
0002e0 3b 4b fa 3d 18 e7 d5 be 82 cc 30 3e 68 c7 97 3c
       0.1222138 -0.41777873 0.17265514 0.018527701
0002f0 d4 36 45 3e 0e 90 bb 3e fd 94 9d be 85 25 ce 3e
       0.19259197 0.36633343 -0.30777732 0.40263
000300 34 90 4e 3e b4 88 d6 3e c7 04 8d 3d ae cb 40 3f
       0.20172197 0.4190117 0.06885677 0.7531079
000310 d8 a1 ed bd 23 cc 65 3d 51 3f a1 be d6 0c c5 3e
       -0.11603135 0.056102883 -0.3149362 0.38486356
000320 11 6a 73 bc 27 b7 28 be f5 14 cc 3e fc f3 ee be
       -0.014856831 -0.16476117 0.3985974 -0.4667052
000330 b2 c8 05 bf c7 a1 ae be b4 11 58 bd de 6d 4a 3f
       -0.5225936 -0.341078 -0.052751258 0.79073894
000340 8e e6 89 be 63 ec b2 3e 24 35 ba be bd 4a 95 3e
       -0.26933712 0.34945974 -0.36368668 0.29158583
000350 41 6e 8f 3e 2d e0 68 3e 15 d5 70 bc a3 50 1f be
       0.28013805 0.22741766 -0.01469924 -0.15558104
000360 ea 79 fd 3e 74 3b 9f bd e9 ff 8f 3e 57 bc 3e 3f
       0.49507076 -0.07775012 0.2812493 0.74506134
000370 f5 e3 d0 3e 52 d4 a2 3e 59 d3 0a 3e 06 cd 87 3d
       0.40798917 0.31802613 0.13557185 0.06630902
000380 58 f7 62 3e f3 f4 ab be d1 92 03 be cd e6 90 be
       0.22164667 -0.3358532 -0.12848975 -0.28301087
000390 b3 74 2e be 95 15 c6 be f6 67 03 bd ef 13 54 3d
       -0.17036705 -0.3868834 -0.032081567 0.051776823
0003a0 93 8f 30 3e f2 6f fe be 3d 45 1d bc 6f 43 9c be
       0.17242269 -0.49694782 -0.009599027 -0.30520198
0003b0 96 58 10 be d4 91 90 bd 65 36 d9 3e 7e 90 31 be
       -0.14096293 -0.070590645 0.42424312 -0.17340276
0003c0 83 06 19 be f9 99 2d be bf 24 cd 3e 81 e5 53 3e
       -0.1494389 -0.16953267 0.40067098 0.20693018
0003d0 98 35 ad 3b 81 5e c1 3e 49 f5 c2 3e da 59 ae be
       0.00528593 0.37767413 0.38077763 -0.34052926
0003e0 d5 94 1d be 71 2e 9a be dc bb be be 88 44 0d 3d
       -0.15388806 -0.30113557 -0.372527 0.034489185
0003f0 09 43 68 3e 7d 7a da 3e ab 8e 3e 3e 40 c6 40 be
       0.22681822 0.42671576 0.18609111 -0.18825626

arith.constant3 f4 [3]
000000 27 8c 42 be 95 81 50 bc b9 95 3b 3e
       -0.18998776 -0.012726207 0.18318833

arith.constant4 f4 [8]
000000 f5 91 62 be a7 6a 0c 3e f9 ce c3 3b 1e f4 55 be
       -0.2212599 0.1371256 0.005975601 -0.20893905
000010 e0 df eb bd 8b cf 7e 3d ce 44 9a 3e 67 f5 3f 3e
       -0.1151731 0.062209647 0.3013062 0.18745957

sequential_1/dense_1_2/Add/ReadVariableOp f4 [16]
000000 47 2c a7 3e 00 00 00 00 61 77 72 bd 78 3b 18 3e
       0.32650968 0.0 -0.05919588 0.14866436
000010 00 00 00 00 00 00 00 00 04 68 9a 3e c3 eb 24 bd
       0.0 0.0 0.30157483 -0.040263902
000020 21 b9 13 be 5a bf 39 3e 15 67 68 bc 8c f4 a0 3d
       -0.1442609 0.18139401 -0.014184733 0.078591436
000030 eb 10 32 be 00 00 00 00 a4 ca 14 bd db 65 ac 3e
       -0.17389266 0.0 -0.036326066 0.3367146

sequential_1/dense_1/Add/ReadVariableOp f4 [32]
000000 00 00 00 00 fd b1 c4 bb 11 41 a7 bd d9 67 cc 3d
       0.0 -0.006002663 -0.08166707 0.09980745
000010 8c e0 2f be 00 00 00 00 00 00 00 00 c7 38 90 3e
       -0.17175502 0.0 0.0 0.28168318
000020 b5 aa 72 3e ba fb 6a be 2f 7a 94 3e 46 d7 71 be
       0.23697932 -0.22947589 0.2899947 -0.23617277
000030 0b fe 78 be 46 e7 8e 3c b3 66 f8 bd 30 ff b4 3e
       -0.2431566 0.017444264 -0.12128963 0.35350943
000040 f8 aa ab bd de 8e 3a 3e 70 0c 3b bd 57 8d 25 be
       -0.08382219 0.18218562 -0.04566616 -0.16167198
000050 03 2c 51 3e a3 37 3c 3e 00 00 00 00 22 c5 ad 3d
       0.20426945 0.18380599 0.0 0.08484866
000060 95 02 96 3c 83 7c 3f 3e 85 c8 7b 3e d2 5e 58 3e
       0.018311778 0.18699841 0.24588211 0.21129921
000070 72 70 7f bc e0 76 2c 3e cf 1d 78 3e 00 00 00 00
       -0.015590774 0.16842222 0.24230121 0.0

sequential_1/dense_1/MatMul f4 [32, 18]
000000 f9 22 8c be 18 fe ab be 45 59 ce be 6d 57 11 bf
       -0.27370432 -0.33592296 -0.40302482 -0.56774026
000010 5d e8 08 bf 8b f9 ec bb d5 ed 8f 3d 34 4c 30 be
       -0.5347956 -0.0072318963 0.07027785 -0.17216569
000020 28 d4 d9 3d 0c ab b7 3e ee eb e7 3d b6 06 8c bc
       0.10636169 0.35872686 0.11324297 -0.017093044
000030 2b 5e 3c bf 1a 06 1d 3e 5d 0c 89 bd 29 4d a4 be
       -0.7358119 0.15334359 -0.06691811 -0.3209012
000040 63 82 00 bd a0 8f 31 3e 36 27 4b 3d c4 f1 43 be
       -0.031374346 0.17339945 0.04959794 -0.19135195
000050 74 14 76 bc 57 a1 89 be 60 36 04 3e 70 51 21 3e
       -0.015019525 -0.26880905 0.12911367 0.15753722
000060 e2 17 36 be c8 ad cf be bf 3b 49 3e e0 ac d4 3d
       -0.17782548 -0.40562272 0.19651698 0.10384536
000070 20 f8 5a 3d 7a 0d b9 bd f6 2f 5d 3e d3 b2 33 3f
       0.053459287 -0.090357736 0.21600327 0.7019474
000080 25 67 69 3d 64 25 b9 3e 3a f6 97 be 17 14 4b 3d
       0.056983132 0.3616134 -0.29680043 0.049579706
000090 fe 2a 80 3e b3 fe c4 3d b7 41 bf 3d 6b 70 eb 3e
       0.250328 0.096188925 0.09338706 0.45984206
0000a0 01 4d 66 bd d4 f0 46 3f b7 e1 5c 3e d0 4c 49 3e
       -0.05622578 0.77711225 0.21570478 0.19658208
0000b0 57 2f 66 be 30 ae 75 3d 4e a0 ea 3e 61 94 84 3d
       -0.22478996 0.05998057 0.45825428 0.064736135
0000c0 14 3d 8e 3e 9e b5 b1 3e 47 10 a4 be 44 1a 1d 3e
       0.27780974 0.34708875 -0.3204367 0.15342051
0000d0 43 4f c8 bd 97 71 00 3e ad b0 96 3d 71 10 41 3d
       -0.09780743 0.12543331 0.07357917 0.04713482
0000e0 be 26 17 3e 4c 85 99 be 1f cd fe be 52 f5 e9 be
       0.14760873 -0.2998451 -0.4976587 -0.45694977
0000f0 e1 f0 6f 3e 3b 29 08 3f 4b da d5 bb ae 93 4d 3e
       0.23431732 0.5318791 -0.0065262667 0.20075867
000100 97 e5 a8 be ae db 23 bf 32 f9 5e be 5e e0 0c 3e
       -0.32987663 -0.6400708 -0.21774748 0.13757464
000110 f2 72 10 bf ba db 76 be 7d 79 ad be 27 c7 47 3f
       -0.5642539 -0.24107257 -0.3388175 0.7803826
000120 dc 90 d5 3e a6 45 ff be 46 ed f2 3c 80 96 11 3b
       0.4171208 -0.49857825 0.029654156 0.002221495
000130 4f d6 f9 3d 6f 08 7f 3c 10 c2 be 3d f9 ee 37 3f
       0.12199079 0.015565976 0.09314358 0.7184902
000140 8c 4e aa be ea 1a 39 bd 96 96 08 3f 6b de 2a bf
       -0.33263052 -0.045191683 0.53354776 -0.6674563
000150 b5 1a 6e bf 81 f3 3f 3f 34 b9 19 bf c0 6a ab 3e
       -0.930095 0.7498093 -0.6004822 0.3347988
000160 a7 f8 bd be 78 72 cc 3e c3 d8 39 3e e6 23 17 bf
       -0.3710377 0.39931083 0.18149094 -0.5903915
000170 14 6d 03 bf a2 2e e2 be 80 85 70 be e5 2c 1c bd
       -0.51338315 -0.44176203 -0.23488426 -0.038128752
000180 40 b6 05 3d c6 bd eb 3e 45 7f 55 3e 4a 28 87 bd
       0.03264451 0.46043223 0.2084933 -0.065994814
000190 40 28 fd 3e 51 21 7d be d9 97 a8 be 73 b0 35 bf
       0.4944477 -0.2471974 -0.3292835 -0.70972365
0001a0 05 a6 0d bd f5 8e d4 bd 01 b3 2c 3e 04 82 05 bd
       -0.034582157 -0.103788294 0.1686516 -0.032594696
0001b0 b3 f7 f3 be 5b 7c 8f bc 23 39 a7 bd 8f 23 33 bd
       -0.47649917 -0.017515352 -0.08165195 -0.043735083
0001c0 93 a9 0a 3f ce 96 0f bf da 32 cc be ea 5b 85 3e
       0.54165 -0.56089485 -0.39882547 0.26046687
0001d0 3a a0 0b bf b1 e9 ad bd 72 b1 4e 3e 07 02 a2 3e
       -0.5454136 -0.08491839 0.20184878 0.31642172
0001e0 1e 86 8b bd b9 63 d3 3e 01 5c dc 3e fb 43 16 bf
       -0.0681269 0.4128702 0.43038943 -0.5869748
0001f0 fd 3a 30 3d c6 c7 6e 3e 92 37 97 3e 27 a8 83 be
       0.043025006 0.23318395 0.29534584 -0.25714228
000200 6e 06 45 bf 29 c8 21 3e bc 03 04 3e 13 bf 38 3e
       -0.76962936 0.15799011 0.1289205 0.18041639
000210 57 44 a9 3d f3 f0 41 3c df 38 1c 3e c7 40 bb 3e
       0.08264988 0.011837232 0.1525607 0.3657286
000220 83 8f 38 3e ec 5c 0f 3f 3c cc 9d 3e 9c cf 01 3f
       0.18023495 0.5600116 0.3081988 0.5070741
000230 3e ac 3b 3f 6e b9 6b 3e f1 90 b7 be 3a 49 3e 3e
       0.73309696 0.23019955 -0.3585277 0.18582621
000240 a7 ef 42 3e fa 14 d5 3e 8c df 80 be 9d 9f b7 3e
       0.19036733 0.41617566 -0.25170553 0.35863963
000250 5f 61 a4 3d 16 b8 9c bd 0c f2 7e be 40 08 83 bc
       0.080263846 -0.07652299 -0.24897021 -0.015995145
000260 69 fa 02 3f 4a 1f 33 3e ca 65 91 3d 59 64 97 3e
       0.51163346 0.17492405 0.07099493 0.29568747
000270 35 1e d8 3e b7 26 d9 be 2b 62 96 be 9e 4c 34 3f
       0.42210546 -0.4241235 -0.2937177 0.7042941
000280 65 d5 39 bd 5c 4c 0f 3e 95 6b d7 3d 3e fd bf 3e
       -0.045369525 0.13993973 0.105185665 0.37497896
000290 4a d8 fd 3e c0 a7 f5 bd 65 36 8e 3e d2 4b 25 3d
       0.49579078 -0.119948864 0.27775875 0.04035551
0002a0 9b dd a2 3c ab 96 b4 3e 2d bc cb 3e d5 66 31 bf
       0.01988106 0.352712 0.39792004 -0.69297534
0002b0 eb 56 90 be 8c 41 ba bd 78 32 80 be 58 61 0c 3f
       -0.28191313 -0.09094533 -0.25038505 0.54836035
0002c0 76 85 b9 be 2b 28 39 be 1f 47 8b bd cd 02 a2 3e
       -0.36234635 -0.18081729 -0.06800675 0.31642762
0002d0 3d e0 7a 3d b1 7d 49 3f d3 c4 c3 3d b4 8d ac 3e
       0.061249007 0.78707415 0.095590256 0.3370186
0002e0 95 77 4a be 95 3b c8 bd cd 91 ae be 86 6f 17 3e
       -0.1977218 -0.09776989 -0.34095612 0.14788637
0002f0 25 91 4b be 72 4e 33 3f e9 01 66 3f 9d 2e 47 3f
       -0.19879587 0.70041573 0.89846665 0.778055
000300 4f f0 fc 3e 56 d6 05 bf c6 1f 30 3f ce 2e 13 3f
       0.4940209 -0.52280176 0.6879848 0.57493293
000310 7f c3 31 3e 5f 0d b1 3c c0 5c 58 be 8f 03 2b 3e
       0.17359732 0.021612821 -0.21129131 0.16700576
000320 fb 59 85 be eb 50 54 3d fe 24 b9 3e e1 33 cd 3e
       -0.26045212 0.051834982 0.36161035 0.40078643
000330 eb b0 15 bd 3a 94 d5 3e f8 c7 65 3e 09 ed 6f bf
       -0.036545675 0.4171465 0.22439563 -0.9372106
000340 cf 1a b8 3e a6 57 08 bd d2 f8 c2 3e a4 1a db 3d
       0.35957953 -0.033286713 0.3808046 0.10698441
000350 3f e1 3b be 0d e2 13 bf b7 29 88 bd ac 56 09 3f
       -0.18347643 -0.577668 -0.066485815 0.53647876
000360 3a 55 ea 3c 99 f7 e8 bc 0f 1f 54 be b5 4e 29 3e
       0.028605092 -0.028438376 -0.20714973 0.1653393
000370 38 a1 6c 3e d7 fc 63 be 90 53 5b 3e 7c e4 f9 3e
       0.23108375 -0.2226442 0.21418595 0.48807132
000380 85 5d 8a 3e fc ac 8b be 2d ff 62 3e 5a 00 28 be
       0.27024475 -0.27280414 0.22167654 -0.16406384
000390 ba c3 9b be c2 4b 8d 3d f2 55 7f bf 05 bf a8 be
       -0.30422765 0.06899215 -0.9974052 -0.32958236
0003a0 24 a0 2d 3f 6a 0e 9a be 59 29 85 be 4f e4 94 be
       0.6782248 -0.30089122 -0.26008108 -0.29080436
0003b0 2f 89 11 3f 83 f3 8e bd 42 a7 a0 3e c7 a1 ee 3d
       0.5684995 -0.0698004 0.31377608 0.1165195
0003c0 d9 b8 58 be 09 e2 41 3e 5d 50 ca bd 76 f7 3a bf
       -0.21164264 0.18933882 -0.09878609 -0.73033845
0003d0 b9 bb 7a 3e 2c 71 5f bd 86 78 f9 3e 27 9e 48 bf
       0.24485673 -0.05455129 0.48724765 -0.7836632
0003e0 3b 01 1e 3f a3 6e 77 3e fd ba 4a 3e 2e 59 88 be
       0.6172063 0.24163298 0.19797893 -0.2663054
0003f0 16 03 7b 3e c9 5e 8d 3e fe 39 1c 3f 67 db b3 be
       0.24512896 0.27611378 0.6102599 -0.35128328
